# Ultralytics 🚀 AGPL-3.0 License - https://ultralytics.com/license

# YOLOv8-BSA: 背景抑制注意力消融实验
# 仅在 Neck 融合层使用 C2f_BSA，其余与 ShipRS-v3 一致

nc: 80
scales:
  n: [0.33, 0.25, 1024]
  s: [0.33, 0.50, 1024]
  m: [0.67, 0.75, 768]

backbone:
  - [-1, 1, Conv, [64, 3, 2]]
  - [-1, 1, Conv, [128, 3, 2]]
  - [-1, 3, C2f, [128, True]]
  - [-1, 1, Conv, [256, 3, 2]]
  - [-1, 6, C2f, [256, True]]
  - [-1, 1, Conv, [512, 3, 2]]
  - [-1, 6, C2f, [512, True]]
  - [-1, 1, Conv, [1024, 3, 2]]
  - [-1, 3, C2f, [1024, True]]
  - [-1, 1, SPPF, [1024, 5]]

head:
  - [-1, 1, nn.Upsample, [None, 2, "nearest"]]
  - [[-1, 6], 1, Concat, [1]]
  - [-1, 3, C2f_BSA, [512]]
  - [-1, 1, nn.Upsample, [None, 2, "nearest"]]
  - [[-1, 4], 1, Concat, [1]]
  - [-1, 3, C2f_BSA, [256]]
  - [-1, 1, nn.Upsample, [None, 2, "nearest"]]
  - [[-1, 2], 1, Concat, [1]]
  - [-1, 3, C2f_BSA, [128]]
  - [-1, 1, Conv, [128, 3, 2]]
  - [[-1, 15], 1, Concat, [1]]
  - [-1, 3, C2f_BSA, [256]]
  - [-1, 1, Conv, [256, 3, 2]]
  - [[-1, 12], 1, Concat, [1]]
  - [-1, 3, C2f, [512]]
  - [-1, 1, Conv, [512, 3, 2]]
  - [[-1, 9], 1, Concat, [1]]
  - [-1, 3, C2f, [1024]]
  - [[18, 21, 24, 27], 1, AdaptiveDetect, [nc]]
