# YOLOv8-EMA: 消融实验 — 仅添加 EMA 注意力（无渐进式融合）
# 与 v1 (C2f_CA) 对比，验证 EMA 注意力模块的效果
nc: 1
scales:
  n: [0.33, 0.25, 1024]
  s: [0.33, 0.50, 1024]
  m: [0.67, 0.75, 768]

backbone:
  - [-1, 1, Conv, [64, 3, 2]]
  - [-1, 1, Conv, [128, 3, 2]]
  - [-1, 3, C2f, [128, True]]
  - [-1, 1, Conv, [256, 3, 2]]
  - [-1, 6, C2f_EMA, [256, True]] # ★ EMA 替换
  - [-1, 1, Conv, [512, 3, 2]]
  - [-1, 6, C2f_EMA, [512, True]] # ★ EMA 替换
  - [-1, 1, Conv, [1024, 3, 2]]
  - [-1, 3, C2f, [1024, True]]
  - [-1, 1, SPPF, [1024, 5]]

head:
  - [-1, 1, nn.Upsample, [None, 2, "nearest"]]
  - [[-1, 6], 1, Concat, [1]]
  - [-1, 3, C2f, [512]]

  - [-1, 1, nn.Upsample, [None, 2, "nearest"]]
  - [[-1, 4], 1, Concat, [1]]
  - [-1, 3, C2f, [256]]

  - [-1, 1, nn.Upsample, [None, 2, "nearest"]]
  - [[-1, 2], 1, Concat, [1]]
  - [-1, 3, C2f, [128]]

  - [-1, 1, Conv, [128, 3, 2]]
  - [[-1, 15], 1, Concat, [1]]
  - [-1, 3, C2f, [256]]

  - [-1, 1, Conv, [256, 3, 2]]
  - [[-1, 12], 1, Concat, [1]]
  - [-1, 3, C2f, [512]]

  - [-1, 1, Conv, [512, 3, 2]]
  - [[-1, 9], 1, Concat, [1]]
  - [-1, 3, C2f, [1024]]

  - [[18, 21, 24, 27], 1, AdaptiveDetect, [nc]]
